Model: "model"
__________________________________________________________________________________________________
 Layer (type)                Output Shape                 Param #   Connected to                  
==================================================================================================
 input_1 (InputLayer)        [(None, 192, 256, 3)]        0         []                            
                                                                                                  
 conv2d (Conv2D)             (None, 192, 256, 8)          224       ['input_1[0][0]']             
                                                                                                  
 conv2d_1 (Conv2D)           (None, 192, 256, 8)          584       ['conv2d[0][0]']              
                                                                                                  
 max_pooling2d (MaxPooling2  (None, 96, 128, 8)           0         ['conv2d_1[0][0]']            
 D)                                                                                               
                                                                                                  
 conv2d_2 (Conv2D)           (None, 96, 128, 16)          1168      ['max_pooling2d[0][0]']       
                                                                                                  
 conv2d_3 (Conv2D)           (None, 96, 128, 16)          2320      ['conv2d_2[0][0]']            
                                                                                                  
 max_pooling2d_1 (MaxPoolin  (None, 48, 64, 16)           0         ['conv2d_3[0][0]']            
 g2D)                                                                                             
                                                                                                  
 conv2d_4 (Conv2D)           (None, 48, 64, 32)           4640      ['max_pooling2d_1[0][0]']     
                                                                                                  
 conv2d_5 (Conv2D)           (None, 48, 64, 32)           9248      ['conv2d_4[0][0]']            
                                                                                                  
 max_pooling2d_2 (MaxPoolin  (None, 24, 32, 32)           0         ['conv2d_5[0][0]']            
 g2D)                                                                                             
                                                                                                  
 conv2d_6 (Conv2D)           (None, 24, 32, 16)           4624      ['max_pooling2d_2[0][0]']     
                                                                                                  
 conv2d_7 (Conv2D)           (None, 24, 32, 16)           2320      ['conv2d_6[0][0]']            
                                                                                                  
 max_pooling2d_3 (MaxPoolin  (None, 12, 16, 16)           0         ['conv2d_7[0][0]']            
 g2D)                                                                                             
                                                                                                  
 conv2d_8 (Conv2D)           (None, 12, 16, 8)            1160      ['max_pooling2d_3[0][0]']     
                                                                                                  
 conv2d_9 (Conv2D)           (None, 12, 16, 8)            584       ['conv2d_8[0][0]']            
                                                                                                  
 max_pooling2d_4 (MaxPoolin  (None, 6, 8, 8)              0         ['conv2d_9[0][0]']            
 g2D)                                                                                             
                                                                                                  
 bottleneck1 (Conv2D)        (None, 6, 8, 16)             1168      ['max_pooling2d_4[0][0]']     
                                                                                                  
 conv2d_transpose (Conv2DTr  (None, 12, 16, 8)            1160      ['bottleneck1[0][0]']         
 anspose)                                                                                         
                                                                                                  
 concatenate (Concatenate)   (None, 12, 16, 16)           0         ['conv2d_transpose[0][0]',    
                                                                     'conv2d_9[0][0]']            
                                                                                                  
 conv2d_10 (Conv2D)          (None, 12, 16, 8)            1160      ['concatenate[0][0]']         
                                                                                                  
 conv2d_11 (Conv2D)          (None, 12, 16, 8)            584       ['conv2d_10[0][0]']           
                                                                                                  
 conv2d_transpose_1 (Conv2D  (None, 24, 32, 16)           1168      ['conv2d_11[0][0]']           
 Transpose)                                                                                       
                                                                                                  
 concatenate_1 (Concatenate  (None, 24, 32, 32)           0         ['conv2d_transpose_1[0][0]',  
 )                                                                   'conv2d_7[0][0]']            
                                                                                                  
 conv2d_12 (Conv2D)          (None, 24, 32, 16)           4624      ['concatenate_1[0][0]']       
                                                                                                  
 conv2d_13 (Conv2D)          (None, 24, 32, 16)           2320      ['conv2d_12[0][0]']           
                                                                                                  
 conv2d_transpose_2 (Conv2D  (None, 48, 64, 32)           4640      ['conv2d_13[0][0]']           
 Transpose)                                                                                       
                                                                                                  
 concatenate_2 (Concatenate  (None, 48, 64, 64)           0         ['conv2d_transpose_2[0][0]',  
 )                                                                   'conv2d_5[0][0]']            
                                                                                                  
 conv2d_14 (Conv2D)          (None, 48, 64, 32)           18464     ['concatenate_2[0][0]']       
                                                                                                  
 conv2d_15 (Conv2D)          (None, 48, 64, 32)           9248      ['conv2d_14[0][0]']           
                                                                                                  
 conv2d_transpose_3 (Conv2D  (None, 96, 128, 16)          4624      ['conv2d_15[0][0]']           
 Transpose)                                                                                       
                                                                                                  
 concatenate_3 (Concatenate  (None, 96, 128, 32)          0         ['conv2d_transpose_3[0][0]',  
 )                                                                   'conv2d_3[0][0]']            
                                                                                                  
 conv2d_16 (Conv2D)          (None, 96, 128, 16)          4624      ['concatenate_3[0][0]']       
                                                                                                  
 conv2d_17 (Conv2D)          (None, 96, 128, 16)          2320      ['conv2d_16[0][0]']           
                                                                                                  
 conv2d_transpose_4 (Conv2D  (None, 192, 256, 8)          1160      ['conv2d_17[0][0]']           
 Transpose)                                                                                       
                                                                                                  
 concatenate_4 (Concatenate  (None, 192, 256, 16)         0         ['conv2d_transpose_4[0][0]',  
 )                                                                   'conv2d_1[0][0]']            
                                                                                                  
 conv2d_18 (Conv2D)          (None, 192, 256, 8)          1160      ['concatenate_4[0][0]']       
                                                                                                  
 conv2d_19 (Conv2D)          (None, 192, 256, 8)          584       ['conv2d_18[0][0]']           
                                                                                                  
 conv2d_20 (Conv2D)          (None, 192, 256, 1)          9         ['conv2d_19[0][0]']           
                                                                                                  
==================================================================================================
Total params: 85889 (335.50 KB)
Trainable params: 85889 (335.50 KB)
Non-trainable params: 0 (0.00 Byte)
__________________________________________________________________________________________________
…
