Model: "model"
__________________________________________________________________________________________________
 Layer (type)                Output Shape                 Param #   Connected to                  
==================================================================================================
 input_1 (InputLayer)        [(None, 192, 256, 3)]        0         []                            
                                                                                                  
 conv2d (Conv2D)             (None, 192, 256, 8)          224       ['input_1[0][0]']             
                                                                                                  
 conv2d_1 (Conv2D)           (None, 192, 256, 8)          584       ['conv2d[0][0]']              
                                                                                                  
 max_pooling2d (MaxPooling2  (None, 96, 128, 8)           0         ['conv2d_1[0][0]']            
 D)                                                                                               
                                                                                                  
 conv2d_2 (Conv2D)           (None, 96, 128, 16)          1168      ['max_pooling2d[0][0]']       
                                                                                                  
 conv2d_3 (Conv2D)           (None, 96, 128, 16)          2320      ['conv2d_2[0][0]']            
                                                                                                  
 max_pooling2d_1 (MaxPoolin  (None, 48, 64, 16)           0         ['conv2d_3[0][0]']            
 g2D)                                                                                             
                                                                                                  
 conv2d_4 (Conv2D)           (None, 48, 64, 32)           4640      ['max_pooling2d_1[0][0]']     
                                                                                                  
 conv2d_5 (Conv2D)           (None, 48, 64, 32)           9248      ['conv2d_4[0][0]']            
                                                                                                  
 max_pooling2d_2 (MaxPoolin  (None, 24, 32, 32)           0         ['conv2d_5[0][0]']            
 g2D)                                                                                             
                                                                                                  
 conv2d_6 (Conv2D)           (None, 24, 32, 16)           4624      ['max_pooling2d_2[0][0]']     
                                                                                                  
 conv2d_7 (Conv2D)           (None, 24, 32, 16)           2320      ['conv2d_6[0][0]']            
                                                                                                  
 max_pooling2d_3 (MaxPoolin  (None, 12, 16, 16)           0         ['conv2d_7[0][0]']            
 g2D)                                                                                             
                                                                                                  
 conv2d_8 (Conv2D)           (None, 12, 16, 8)            1160      ['max_pooling2d_3[0][0]']     
                                                                                                  
 conv2d_9 (Conv2D)           (None, 12, 16, 8)            584       ['conv2d_8[0][0]']            
                                                                                                  
 max_pooling2d_4 (MaxPoolin  (None, 6, 8, 8)              0         ['conv2d_9[0][0]']            
 g2D)                                                                                             
                                                                                                  
 tf.split (TFOpLambda)       [(None, 6, 8, 1),            0         ['max_pooling2d_4[0][0]']     
                              (None, 6, 8, 1),                                                    
…
                              (None, 6, 8, 1),                                                    
                              (None, 6, 8, 1),                                                    
                              (None, 6, 8, 1),                                                    
                              (None, 6, 8, 1),                                                    
                              (None, 6, 8, 1)]                                                    
                                                                                                  
 tf.image.extract_patches (  (None, 3, 4, 4)              0         ['tf.split[0][0]']            
 TFOpLambda)                                                                                      
                                                                                                  
 tf.image.extract_patches_1  (None, 3, 4, 4)              0         ['tf.split[0][1]']            
  (TFOpLambda)                                                                                    
                                                                                                  
 tf.image.extract_patches_2  (None, 3, 4, 4)              0         ['tf.split[0][2]']            
  (TFOpLambda)                                                                                    
                                                                                                  
 tf.image.extract_patches_3  (None, 3, 4, 4)              0         ['tf.split[0][3]']            
  (TFOpLambda)                                                                                    
                                                                                                  
 tf.image.extract_patches_4  (None, 3, 4, 4)              0         ['tf.split[0][4]']            
  (TFOpLambda)                                                                                    
                                                                                                  
 tf.image.extract_patches_5  (None, 3, 4, 4)              0         ['tf.split[0][5]']            
  (TFOpLambda)                                                                                    
                                                                                                  
 tf.image.extract_patches_6  (None, 3, 4, 4)              0         ['tf.split[0][6]']            
  (TFOpLambda)                                                                                    
                                                                                                  
 tf.image.extract_patches_7  (None, 3, 4, 4)              0         ['tf.split[0][7]']            
  (TFOpLambda)                                                                                    
                                                                                                  
 reshape (Reshape)           (None, 12, 4)                0         ['tf.image.extract_patches[0][
                                                                    0]']                          
                                                                                                  
 reshape_14 (Reshape)        (None, 12, 4)                0         ['tf.image.extract_patches_1[0
                                                                    ][0]']                        
                                                                                                  
 reshape_28 (Reshape)        (None, 12, 4)                0         ['tf.image.extract_patches_2[0
                                                                    ][0]']                        
                                                                                                  
 reshape_42 (Reshape)        (None, 12, 4)                0         ['tf.image.extract_patches_3[0
                                                                    ][0]']                        
                                                                                                  
 reshape_56 (Reshape)        (None, 12, 4)                0         ['tf.image.extract_patches_4[0
                                                                    ][0]']                        
                                                                                                  
 reshape_70 (Reshape)        (None, 12, 4)                0         ['tf.image.extract_patches_5[0
                                                                    ][0]']                        
                                                                                                  
 reshape_84 (Reshape)        (None, 12, 4)                0         ['tf.image.extract_patches_6[0
                                                                    ][0]']                        
                                                                                                  
 reshape_98 (Reshape)        (None, 12, 4)                0         ['tf.image.extract_patches_7[0
                                                                    ][0]']                        
                                                                                                  
 tf.split_1 (TFOpLambda)     [(None, 1, 4),               0         ['reshape[0][0]']             
                              (None, 1, 4),                                                       
…
                                                                     'tf.split_22[0][7]',         
                                                                     'tf.split_22[0][8]',         
                                                                     'tf.split_22[0][9]',         
                                                                     'tf.split_22[0][10]',        
                                                                     'tf.split_22[0][11]']        
                                                                                                  
 reshape_1 (Reshape)         (None, 2, 2, 1, 1)           0         ['qcnn1[0][0]']               
                                                                                                  
 reshape_2 (Reshape)         (None, 2, 2, 1, 1)           0         ['qcnn1[1][0]']               
                                                                                                  
 reshape_3 (Reshape)         (None, 2, 2, 1, 1)           0         ['qcnn1[2][0]']               
                                                                                                  
 reshape_4 (Reshape)         (None, 2, 2, 1, 1)           0         ['qcnn1[3][0]']               
                                                                                                  
 reshape_5 (Reshape)         (None, 2, 2, 1, 1)           0         ['qcnn1[4][0]']               
                                                                                                  
 reshape_6 (Reshape)         (None, 2, 2, 1, 1)           0         ['qcnn1[5][0]']               
                                                                                                  
 reshape_7 (Reshape)         (None, 2, 2, 1, 1)           0         ['qcnn1[6][0]']               
                                                                                                  
 reshape_8 (Reshape)         (None, 2, 2, 1, 1)           0         ['qcnn1[7][0]']               
                                                                                                  
 reshape_9 (Reshape)         (None, 2, 2, 1, 1)           0         ['qcnn1[8][0]']               
                                                                                                  
 reshape_10 (Reshape)        (None, 2, 2, 1, 1)           0         ['qcnn1[9][0]']               
                                                                                                  
 reshape_11 (Reshape)        (None, 2, 2, 1, 1)           0         ['qcnn1[10][0]']              
                                                                                                  
 reshape_12 (Reshape)        (None, 2, 2, 1, 1)           0         ['qcnn1[11][0]']              
                                                                                                  
 reshape_15 (Reshape)        (None, 2, 2, 1, 1)           0         ['qcnn1[12][0]']              
                                                                                                  
 reshape_16 (Reshape)        (None, 2, 2, 1, 1)           0         ['qcnn1[13][0]']              
                                                                                                  
 reshape_17 (Reshape)        (None, 2, 2, 1, 1)           0         ['qcnn1[14][0]']              
                                                                                                  
 reshape_18 (Reshape)        (None, 2, 2, 1, 1)           0         ['qcnn1[15][0]']              
                                                                                                  
 reshape_19 (Reshape)        (None, 2, 2, 1, 1)           0         ['qcnn1[16][0]']              
                                                                                                  
 reshape_20 (Reshape)        (None, 2, 2, 1, 1)           0         ['qcnn1[17][0]']              
                                                                                                  
 reshape_21 (Reshape)        (None, 2, 2, 1, 1)           0         ['qcnn1[18][0]']              
                                                                                                  
 reshape_22 (Reshape)        (None, 2, 2, 1, 1)           0         ['qcnn1[19][0]']              
                                                                                                  
 reshape_23 (Reshape)        (None, 2, 2, 1, 1)           0         ['qcnn1[20][0]']              
                                                                                                  
 reshape_24 (Reshape)        (None, 2, 2, 1, 1)           0         ['qcnn1[21][0]']              
                                                                                                  
 reshape_25 (Reshape)        (None, 2, 2, 1, 1)           0         ['qcnn1[22][0]']              
                                                                                                  
 reshape_26 (Reshape)        (None, 2, 2, 1, 1)           0         ['qcnn1[23][0]']              
                                                                                                  
 reshape_29 (Reshape)        (None, 2, 2, 1, 1)           0         ['qcnn1[24][0]']              
                                                                                                  
 reshape_30 (Reshape)        (None, 2, 2, 1, 1)           0         ['qcnn1[25][0]']              
                                                                                                  
 reshape_31 (Reshape)        (None, 2, 2, 1, 1)           0         ['qcnn1[26][0]']              
                                                                                                  
 reshape_32 (Reshape)        (None, 2, 2, 1, 1)           0         ['qcnn1[27][0]']              
                                                                                                  
 reshape_33 (Reshape)        (None, 2, 2, 1, 1)           0         ['qcnn1[28][0]']              
                                                                                                  
 reshape_34 (Reshape)        (None, 2, 2, 1, 1)           0         ['qcnn1[29][0]']              
                                                                                                  
 reshape_35 (Reshape)        (None, 2, 2, 1, 1)           0         ['qcnn1[30][0]']              
                                                                                                  
 reshape_36 (Reshape)        (None, 2, 2, 1, 1)           0         ['qcnn1[31][0]']              
                                                                                                  
 reshape_37 (Reshape)        (None, 2, 2, 1, 1)           0         ['qcnn1[32][0]']              
                                                                                                  
 reshape_38 (Reshape)        (None, 2, 2, 1, 1)           0         ['qcnn1[33][0]']              
                                                                                                  
 reshape_39 (Reshape)        (None, 2, 2, 1, 1)           0         ['qcnn1[34][0]']              
                                                                                                  
 reshape_40 (Reshape)        (None, 2, 2, 1, 1)           0         ['qcnn1[35][0]']              
                                                                                                  
 reshape_43 (Reshape)        (None, 2, 2, 1, 1)           0         ['qcnn1[36][0]']              
                                                                                                  
 reshape_44 (Reshape)        (None, 2, 2, 1, 1)           0         ['qcnn1[37][0]']              
                                                                                                  
 reshape_45 (Reshape)        (None, 2, 2, 1, 1)           0         ['qcnn1[38][0]']              
                                                                                                  
 reshape_46 (Reshape)        (None, 2, 2, 1, 1)           0         ['qcnn1[39][0]']              
                                                                                                  
 reshape_47 (Reshape)        (None, 2, 2, 1, 1)           0         ['qcnn1[40][0]']              
                                                                                                  
 reshape_48 (Reshape)        (None, 2, 2, 1, 1)           0         ['qcnn1[41][0]']              
                                                                                                  
 reshape_49 (Reshape)        (None, 2, 2, 1, 1)           0         ['qcnn1[42][0]']              
                                                                                                  
 reshape_50 (Reshape)        (None, 2, 2, 1, 1)           0         ['qcnn1[43][0]']              
                                                                                                  
 reshape_51 (Reshape)        (None, 2, 2, 1, 1)           0         ['qcnn1[44][0]']              
                                                                                                  
 reshape_52 (Reshape)        (None, 2, 2, 1, 1)           0         ['qcnn1[45][0]']              
                                                                                                  
 reshape_53 (Reshape)        (None, 2, 2, 1, 1)           0         ['qcnn1[46][0]']              
                                                                                                  
 reshape_54 (Reshape)        (None, 2, 2, 1, 1)           0         ['qcnn1[47][0]']              
                                                                                                  
 reshape_57 (Reshape)        (None, 2, 2, 1, 1)           0         ['qcnn1[48][0]']              
                                                                                                  
 reshape_58 (Reshape)        (None, 2, 2, 1, 1)           0         ['qcnn1[49][0]']              
                                                                                                  
 reshape_59 (Reshape)        (None, 2, 2, 1, 1)           0         ['qcnn1[50][0]']              
                                                                                                  
 reshape_60 (Reshape)        (None, 2, 2, 1, 1)           0         ['qcnn1[51][0]']              
                                                                                                  
 reshape_61 (Reshape)        (None, 2, 2, 1, 1)           0         ['qcnn1[52][0]']              
                                                                                                  
 reshape_62 (Reshape)        (None, 2, 2, 1, 1)           0         ['qcnn1[53][0]']              
                                                                                                  
 reshape_63 (Reshape)        (None, 2, 2, 1, 1)           0         ['qcnn1[54][0]']              
                                                                                                  
 reshape_64 (Reshape)        (None, 2, 2, 1, 1)           0         ['qcnn1[55][0]']              
                                                                                                  
 reshape_65 (Reshape)        (None, 2, 2, 1, 1)           0         ['qcnn1[56][0]']              
                                                                                                  
 reshape_66 (Reshape)        (None, 2, 2, 1, 1)           0         ['qcnn1[57][0]']              
                                                                                                  
 reshape_67 (Reshape)        (None, 2, 2, 1, 1)           0         ['qcnn1[58][0]']              
                                                                                                  
 reshape_68 (Reshape)        (None, 2, 2, 1, 1)           0         ['qcnn1[59][0]']              
                                                                                                  
 reshape_71 (Reshape)        (None, 2, 2, 1, 1)           0         ['qcnn1[60][0]']              
                                                                                                  
 reshape_72 (Reshape)        (None, 2, 2, 1, 1)           0         ['qcnn1[61][0]']              
                                                                                                  
 reshape_73 (Reshape)        (None, 2, 2, 1, 1)           0         ['qcnn1[62][0]']              
                                                                                                  
 reshape_74 (Reshape)        (None, 2, 2, 1, 1)           0         ['qcnn1[63][0]']              
                                                                                                  
 reshape_75 (Reshape)        (None, 2, 2, 1, 1)           0         ['qcnn1[64][0]']              
                                                                                                  
 reshape_76 (Reshape)        (None, 2, 2, 1, 1)           0         ['qcnn1[65][0]']              
                                                                                                  
 reshape_77 (Reshape)        (None, 2, 2, 1, 1)           0         ['qcnn1[66][0]']              
                                                                                                  
 reshape_78 (Reshape)        (None, 2, 2, 1, 1)           0         ['qcnn1[67][0]']              
                                                                                                  
 reshape_79 (Reshape)        (None, 2, 2, 1, 1)           0         ['qcnn1[68][0]']              
                                                                                                  
 reshape_80 (Reshape)        (None, 2, 2, 1, 1)           0         ['qcnn1[69][0]']              
                                                                                                  
 reshape_81 (Reshape)        (None, 2, 2, 1, 1)           0         ['qcnn1[70][0]']              
                                                                                                  
 reshape_82 (Reshape)        (None, 2, 2, 1, 1)           0         ['qcnn1[71][0]']              
                                                                                                  
 reshape_85 (Reshape)        (None, 2, 2, 1, 1)           0         ['qcnn1[72][0]']              
                                                                                                  
 reshape_86 (Reshape)        (None, 2, 2, 1, 1)           0         ['qcnn1[73][0]']              
                                                                                                  
 reshape_87 (Reshape)        (None, 2, 2, 1, 1)           0         ['qcnn1[74][0]']              
                                                                                                  
 reshape_88 (Reshape)        (None, 2, 2, 1, 1)           0         ['qcnn1[75][0]']              
                                                                                                  
 reshape_89 (Reshape)        (None, 2, 2, 1, 1)           0         ['qcnn1[76][0]']              
                                                                                                  
 reshape_90 (Reshape)        (None, 2, 2, 1, 1)           0         ['qcnn1[77][0]']              
                                                                                                  
 reshape_91 (Reshape)        (None, 2, 2, 1, 1)           0         ['qcnn1[78][0]']              
                                                                                                  
 reshape_92 (Reshape)        (None, 2, 2, 1, 1)           0         ['qcnn1[79][0]']              
                                                                                                  
 reshape_93 (Reshape)        (None, 2, 2, 1, 1)           0         ['qcnn1[80][0]']              
                                                                                                  
 reshape_94 (Reshape)        (None, 2, 2, 1, 1)           0         ['qcnn1[81][0]']              
                                                                                                  
 reshape_95 (Reshape)        (None, 2, 2, 1, 1)           0         ['qcnn1[82][0]']              
                                                                                                  
 reshape_96 (Reshape)        (None, 2, 2, 1, 1)           0         ['qcnn1[83][0]']              
                                                                                                  
 reshape_99 (Reshape)        (None, 2, 2, 1, 1)           0         ['qcnn1[84][0]']              
                                                                                                  
 reshape_100 (Reshape)       (None, 2, 2, 1, 1)           0         ['qcnn1[85][0]']              
                                                                                                  
 reshape_101 (Reshape)       (None, 2, 2, 1, 1)           0         ['qcnn1[86][0]']              
                                                                                                  
 reshape_102 (Reshape)       (None, 2, 2, 1, 1)           0         ['qcnn1[87][0]']              
                                                                                                  
 reshape_103 (Reshape)       (None, 2, 2, 1, 1)           0         ['qcnn1[88][0]']              
                                                                                                  
 reshape_104 (Reshape)       (None, 2, 2, 1, 1)           0         ['qcnn1[89][0]']              
                                                                                                  
 reshape_105 (Reshape)       (None, 2, 2, 1, 1)           0         ['qcnn1[90][0]']              
                                                                                                  
 reshape_106 (Reshape)       (None, 2, 2, 1, 1)           0         ['qcnn1[91][0]']              
                                                                                                  
 reshape_107 (Reshape)       (None, 2, 2, 1, 1)           0         ['qcnn1[92][0]']              
                                                                                                  
 reshape_108 (Reshape)       (None, 2, 2, 1, 1)           0         ['qcnn1[93][0]']              
                                                                                                  
 reshape_109 (Reshape)       (None, 2, 2, 1, 1)           0         ['qcnn1[94][0]']              
                                                                                                  
 reshape_110 (Reshape)       (None, 2, 2, 1, 1)           0         ['qcnn1[95][0]']              
                                                                                                  
 tf.concat (TFOpLambda)      (None, 2, 2, 1, 12)          0         ['reshape_1[0][0]',           
                                                                     'reshape_2[0][0]',           
                                                                     'reshape_3[0][0]',           
                                                                     'reshape_4[0][0]',           
                                                                     'reshape_5[0][0]',           
…
                                                                     'reshape_106[0][0]',         
                                                                     'reshape_107[0][0]',         
                                                                     'reshape_108[0][0]',         
                                                                     'reshape_109[0][0]',         
                                                                     'reshape_110[0][0]']         
                                                                                                  
 reshape_13 (Reshape)        (None, 2, 2, 1, 3, 4)        0         ['tf.concat[0][0]']           
                                                                                                  
 reshape_27 (Reshape)        (None, 2, 2, 1, 3, 4)        0         ['tf.concat_3[0][0]']         
                                                                                                  
 reshape_41 (Reshape)        (None, 2, 2, 1, 3, 4)        0         ['tf.concat_6[0][0]']         
                                                                                                  
 reshape_55 (Reshape)        (None, 2, 2, 1, 3, 4)        0         ['tf.concat_9[0][0]']         
                                                                                                  
 reshape_69 (Reshape)        (None, 2, 2, 1, 3, 4)        0         ['tf.concat_12[0][0]']        
                                                                                                  
 reshape_83 (Reshape)        (None, 2, 2, 1, 3, 4)        0         ['tf.concat_15[0][0]']        
                                                                                                  
 reshape_97 (Reshape)        (None, 2, 2, 1, 3, 4)        0         ['tf.concat_18[0][0]']        
                                                                                                  
 reshape_111 (Reshape)       (None, 2, 2, 1, 3, 4)        0         ['tf.concat_21[0][0]']        
                                                                                                  
 tf.split_2 (TFOpLambda)     [(None, 2, 2, 1, 1, 4),      0         ['reshape_13[0][0]']          
                              (None, 2, 2, 1, 1, 4),                                              
                              (None, 2, 2, 1, 1, 4)]                                              
…
                              (None, 2, 2, 1, 1, 4)]                                              
                                                                                                  
 tf.split_23 (TFOpLambda)    [(None, 2, 2, 1, 1, 4),      0         ['reshape_111[0][0]']         
                              (None, 2, 2, 1, 1, 4),                                              
                              (None, 2, 2, 1, 1, 4)]                                              
                                                                                                  
 tf.concat_1 (TFOpLambda)    (None, 6, 2, 1, 1, 4)        0         ['tf.split_2[0][0]',          
                                                                     'tf.split_2[0][1]',          
                                                                     'tf.split_2[0][2]']          
                                                                                                  
 tf.concat_4 (TFOpLambda)    (None, 6, 2, 1, 1, 4)        0         ['tf.split_5[0][0]',          
                                                                     'tf.split_5[0][1]',          
                                                                     'tf.split_5[0][2]']          
                                                                                                  
 tf.concat_7 (TFOpLambda)    (None, 6, 2, 1, 1, 4)        0         ['tf.split_8[0][0]',          
                                                                     'tf.split_8[0][1]',          
                                                                     'tf.split_8[0][2]']          
                                                                                                  
 tf.concat_10 (TFOpLambda)   (None, 6, 2, 1, 1, 4)        0         ['tf.split_11[0][0]',         
                                                                     'tf.split_11[0][1]',         
                                                                     'tf.split_11[0][2]']         
                                                                                                  
 tf.concat_13 (TFOpLambda)   (None, 6, 2, 1, 1, 4)        0         ['tf.split_14[0][0]',         
                                                                     'tf.split_14[0][1]',         
                                                                     'tf.split_14[0][2]']         
                                                                                                  
 tf.concat_16 (TFOpLambda)   (None, 6, 2, 1, 1, 4)        0         ['tf.split_17[0][0]',         
                                                                     'tf.split_17[0][1]',         
                                                                     'tf.split_17[0][2]']         
                                                                                                  
 tf.concat_19 (TFOpLambda)   (None, 6, 2, 1, 1, 4)        0         ['tf.split_20[0][0]',         
                                                                     'tf.split_20[0][1]',         
                                                                     'tf.split_20[0][2]']         
                                                                                                  
 tf.concat_22 (TFOpLambda)   (None, 6, 2, 1, 1, 4)        0         ['tf.split_23[0][0]',         
                                                                     'tf.split_23[0][1]',         
                                                                     'tf.split_23[0][2]']         
                                                                                                  
 tf.split_3 (TFOpLambda)     [(None, 6, 2, 1, 1, 1),      0         ['tf.concat_1[0][0]']         
…
                                                                                                  
 tf.split_24 (TFOpLambda)    [(None, 6, 2, 1, 1, 1),      0         ['tf.concat_22[0][0]']        
                              (None, 6, 2, 1, 1, 1),                                              
                              (None, 6, 2, 1, 1, 1),                                              
                              (None, 6, 2, 1, 1, 1)]                                              
                                                                                                  
 tf.concat_2 (TFOpLambda)    (None, 6, 8, 1, 1, 1)        0         ['tf.split_3[0][0]',          
                                                                     'tf.split_3[0][1]',          
                                                                     'tf.split_3[0][2]',          
                                                                     'tf.split_3[0][3]']          
                                                                                                  
 tf.concat_5 (TFOpLambda)    (None, 6, 8, 1, 1, 1)        0         ['tf.split_6[0][0]',          
                                                                     'tf.split_6[0][1]',          
                                                                     'tf.split_6[0][2]',          
                                                                     'tf.split_6[0][3]']          
                                                                                                  
 tf.concat_8 (TFOpLambda)    (None, 6, 8, 1, 1, 1)        0         ['tf.split_9[0][0]',          
                                                                     'tf.split_9[0][1]',          
                                                                     'tf.split_9[0][2]',          
                                                                     'tf.split_9[0][3]']          
                                                                                                  
 tf.concat_11 (TFOpLambda)   (None, 6, 8, 1, 1, 1)        0         ['tf.split_12[0][0]',         
                                                                     'tf.split_12[0][1]',         
                                                                     'tf.split_12[0][2]',         
                                                                     'tf.split_12[0][3]']         
                                                                                                  
 tf.concat_14 (TFOpLambda)   (None, 6, 8, 1, 1, 1)        0         ['tf.split_15[0][0]',         
                                                                     'tf.split_15[0][1]',         
                                                                     'tf.split_15[0][2]',         
                                                                     'tf.split_15[0][3]']         
                                                                                                  
 tf.concat_17 (TFOpLambda)   (None, 6, 8, 1, 1, 1)        0         ['tf.split_18[0][0]',         
                                                                     'tf.split_18[0][1]',         
                                                                     'tf.split_18[0][2]',         
                                                                     'tf.split_18[0][3]']         
                                                                                                  
 tf.concat_20 (TFOpLambda)   (None, 6, 8, 1, 1, 1)        0         ['tf.split_21[0][0]',         
                                                                     'tf.split_21[0][1]',         
                                                                     'tf.split_21[0][2]',         
                                                                     'tf.split_21[0][3]']         
                                                                                                  
 tf.concat_23 (TFOpLambda)   (None, 6, 8, 1, 1, 1)        0         ['tf.split_24[0][0]',         
                                                                     'tf.split_24[0][1]',         
                                                                     'tf.split_24[0][2]',         
                                                                     'tf.split_24[0][3]']         
                                                                                                  
 tf.compat.v1.squeeze (TFOp  (None, 6, 8, 1)              0         ['tf.concat_2[0][0]']         
 Lambda)                                                                                          
                                                                                                  
 tf.compat.v1.squeeze_1 (TF  (None, 6, 8, 1)              0         ['tf.concat_5[0][0]']         
 OpLambda)                                                                                        
                                                                                                  
 tf.compat.v1.squeeze_2 (TF  (None, 6, 8, 1)              0         ['tf.concat_8[0][0]']         
 OpLambda)                                                                                        
                                                                                                  
 tf.compat.v1.squeeze_3 (TF  (None, 6, 8, 1)              0         ['tf.concat_11[0][0]']        
 OpLambda)                                                                                        
                                                                                                  
 tf.compat.v1.squeeze_4 (TF  (None, 6, 8, 1)              0         ['tf.concat_14[0][0]']        
 OpLambda)                                                                                        
                                                                                                  
 tf.compat.v1.squeeze_5 (TF  (None, 6, 8, 1)              0         ['tf.concat_17[0][0]']        
 OpLambda)                                                                                        
                                                                                                  
 tf.compat.v1.squeeze_6 (TF  (None, 6, 8, 1)              0         ['tf.concat_20[0][0]']        
 OpLambda)                                                                                        
                                                                                                  
 tf.compat.v1.squeeze_7 (TF  (None, 6, 8, 1)              0         ['tf.concat_23[0][0]']        
 OpLambda)                                                                                        
                                                                                                  
 q-resultant (Concatenate)   (None, 6, 8, 8)              0         ['tf.compat.v1.squeeze[0][0]',
                                                                     'tf.compat.v1.squeeze_1[0][0]
                                                                    ',                            
                                                                     'tf.compat.v1.squeeze_2[0][0]
                                                                    ',                            
…
                                                                    ',                            
                                                                     'tf.compat.v1.squeeze_6[0][0]
                                                                    ',                            
                                                                     'tf.compat.v1.squeeze_7[0][0]
                                                                    ']                            
                                                                                                  
 add (Add)                   (None, 6, 8, 8)              0         ['max_pooling2d_4[0][0]',     
                                                                     'q-resultant[0][0]']         
                                                                                                  
 conv2d_transpose (Conv2DTr  (None, 12, 16, 8)            584       ['add[0][0]']                 
 anspose)                                                                                         
                                                                                                  
 concatenate (Concatenate)   (None, 12, 16, 16)           0         ['conv2d_transpose[0][0]',    
                                                                     'conv2d_9[0][0]']            
                                                                                                  
 conv2d_10 (Conv2D)          (None, 12, 16, 8)            1160      ['concatenate[0][0]']         
                                                                                                  
 conv2d_11 (Conv2D)          (None, 12, 16, 8)            584       ['conv2d_10[0][0]']           
                                                                                                  
 conv2d_transpose_1 (Conv2D  (None, 24, 32, 16)           1168      ['conv2d_11[0][0]']           
 Transpose)                                                                                       
                                                                                                  
 concatenate_1 (Concatenate  (None, 24, 32, 32)           0         ['conv2d_transpose_1[0][0]',  
 )                                                                   'conv2d_7[0][0]']            
                                                                                                  
 conv2d_12 (Conv2D)          (None, 24, 32, 16)           4624      ['concatenate_1[0][0]']       
                                                                                                  
 conv2d_13 (Conv2D)          (None, 24, 32, 16)           2320      ['conv2d_12[0][0]']           
                                                                                                  
 conv2d_transpose_2 (Conv2D  (None, 48, 64, 32)           4640      ['conv2d_13[0][0]']           
 Transpose)                                                                                       
                                                                                                  
 concatenate_2 (Concatenate  (None, 48, 64, 64)           0         ['conv2d_transpose_2[0][0]',  
 )                                                                   'conv2d_5[0][0]']            
                                                                                                  
 conv2d_14 (Conv2D)          (None, 48, 64, 32)           18464     ['concatenate_2[0][0]']       
                                                                                                  
 conv2d_15 (Conv2D)          (None, 48, 64, 32)           9248      ['conv2d_14[0][0]']           
                                                                                                  
 conv2d_transpose_3 (Conv2D  (None, 96, 128, 16)          4624      ['conv2d_15[0][0]']           
 Transpose)                                                                                       
                                                                                                  
 concatenate_3 (Concatenate  (None, 96, 128, 32)          0         ['conv2d_transpose_3[0][0]',  
 )                                                                   'conv2d_3[0][0]']            
                                                                                                  
 conv2d_16 (Conv2D)          (None, 96, 128, 16)          4624      ['concatenate_3[0][0]']       
                                                                                                  
 conv2d_17 (Conv2D)          (None, 96, 128, 16)          2320      ['conv2d_16[0][0]']           
                                                                                                  
 conv2d_transpose_4 (Conv2D  (None, 192, 256, 8)          1160      ['conv2d_17[0][0]']           
 Transpose)                                                                                       
                                                                                                  
 concatenate_4 (Concatenate  (None, 192, 256, 16)         0         ['conv2d_transpose_4[0][0]',  
 )                                                                   'conv2d_1[0][0]']            
                                                                                                  
 conv2d_18 (Conv2D)          (None, 192, 256, 8)          1160      ['concatenate_4[0][0]']       
                                                                                                  
 conv2d_19 (Conv2D)          (None, 192, 256, 8)          584       ['conv2d_18[0][0]']           
                                                                                                  
 conv2d_20 (Conv2D)          (None, 192, 256, 1)          9         ['conv2d_19[0][0]']           
                                                                                                  
==================================================================================================
Total params: 84149 (328.71 KB)
Trainable params: 84149 (328.71 KB)
Non-trainable params: 0 (0.00 Byte)
__________________________________________________________________________________________________
…
