Model: "model"
__________________________________________________________________________________________________
 Layer (type)                Output Shape                 Param #   Connected to                  
==================================================================================================
 input_1 (InputLayer)        [(None, 192, 256, 3)]        0         []                            
                                                                                                  
 conv2d (Conv2D)             (None, 192, 256, 8)          224       ['input_1[0][0]']             
                                                                                                  
 conv2d_1 (Conv2D)           (None, 192, 256, 8)          584       ['conv2d[0][0]']              
                                                                                                  
 max_pooling2d (MaxPooling2  (None, 96, 128, 8)           0         ['conv2d_1[0][0]']            
 D)                                                                                               
                                                                                                  
 conv2d_2 (Conv2D)           (None, 96, 128, 16)          1168      ['max_pooling2d[0][0]']       
                                                                                                  
 conv2d_3 (Conv2D)           (None, 96, 128, 16)          2320      ['conv2d_2[0][0]']            
                                                                                                  
 max_pooling2d_1 (MaxPoolin  (None, 48, 64, 16)           0         ['conv2d_3[0][0]']            
 g2D)                                                                                             
                                                                                                  
 conv2d_4 (Conv2D)           (None, 48, 64, 32)           4640      ['max_pooling2d_1[0][0]']     
                                                                                                  
 conv2d_5 (Conv2D)           (None, 48, 64, 32)           9248      ['conv2d_4[0][0]']            
                                                                                                  
 max_pooling2d_2 (MaxPoolin  (None, 24, 32, 32)           0         ['conv2d_5[0][0]']            
 g2D)                                                                                             
                                                                                                  
 conv2d_6 (Conv2D)           (None, 24, 32, 16)           4624      ['max_pooling2d_2[0][0]']     
                                                                                                  
 conv2d_7 (Conv2D)           (None, 24, 32, 16)           2320      ['conv2d_6[0][0]']            
                                                                                                  
 max_pooling2d_3 (MaxPoolin  (None, 12, 16, 16)           0         ['conv2d_7[0][0]']            
 g2D)                                                                                             
                                                                                                  
 conv2d_8 (Conv2D)           (None, 12, 16, 9)            1305      ['max_pooling2d_3[0][0]']     
                                                                                                  
 conv2d_9 (Conv2D)           (None, 12, 16, 9)            738       ['conv2d_8[0][0]']            
                                                                                                  
 max_pooling2d_4 (MaxPoolin  (None, 6, 8, 9)              0         ['conv2d_9[0][0]']            
 g2D)                                                                                             
                                                                                                  
 tf.split (TFOpLambda)       [(None, 6, 8, 3),            0         ['max_pooling2d_4[0][0]']     
                              (None, 6, 8, 3),                                                    
                              (None, 6, 8, 3)]                                                    
                                                                                                  
 tf.image.extract_patches (  (None, 3, 4, 12)             0         ['tf.split[0][0]']            
 TFOpLambda)                                                                                      
                                                                                                  
 tf.image.extract_patches_1  (None, 3, 4, 12)             0         ['tf.split[0][1]']            
  (TFOpLambda)                                                                                    
                                                                                                  
 tf.image.extract_patches_2  (None, 3, 4, 12)             0         ['tf.split[0][2]']            
  (TFOpLambda)                                                                                    
                                                                                                  
 reshape (Reshape)           (None, 12, 12)               0         ['tf.image.extract_patches[0][
                                                                    0]']                          
                                                                                                  
 reshape_14 (Reshape)        (None, 12, 12)               0         ['tf.image.extract_patches_1[0
                                                                    ][0]']                        
                                                                                                  
 reshape_28 (Reshape)        (None, 12, 12)               0         ['tf.image.extract_patches_2[0
                                                                    ][0]']                        
                                                                                                  
 tf.split_1 (TFOpLambda)     [(None, 1, 12),              0         ['reshape[0][0]']             
                              (None, 1, 12),                                                      
…
                                                                     'tf.split_7[0][7]',          
                                                                     'tf.split_7[0][8]',          
                                                                     'tf.split_7[0][9]',          
                                                                     'tf.split_7[0][10]',         
                                                                     'tf.split_7[0][11]']         
                                                                                                  
 reshape_1 (Reshape)         (None, 2, 2, 3, 1)           0         ['qcnn1[0][0]']               
                                                                                                  
 reshape_2 (Reshape)         (None, 2, 2, 3, 1)           0         ['qcnn1[1][0]']               
                                                                                                  
 reshape_3 (Reshape)         (None, 2, 2, 3, 1)           0         ['qcnn1[2][0]']               
                                                                                                  
 reshape_4 (Reshape)         (None, 2, 2, 3, 1)           0         ['qcnn1[3][0]']               
                                                                                                  
 reshape_5 (Reshape)         (None, 2, 2, 3, 1)           0         ['qcnn1[4][0]']               
                                                                                                  
 reshape_6 (Reshape)         (None, 2, 2, 3, 1)           0         ['qcnn1[5][0]']               
                                                                                                  
 reshape_7 (Reshape)         (None, 2, 2, 3, 1)           0         ['qcnn1[6][0]']               
                                                                                                  
 reshape_8 (Reshape)         (None, 2, 2, 3, 1)           0         ['qcnn1[7][0]']               
                                                                                                  
 reshape_9 (Reshape)         (None, 2, 2, 3, 1)           0         ['qcnn1[8][0]']               
                                                                                                  
 reshape_10 (Reshape)        (None, 2, 2, 3, 1)           0         ['qcnn1[9][0]']               
                                                                                                  
 reshape_11 (Reshape)        (None, 2, 2, 3, 1)           0         ['qcnn1[10][0]']              
                                                                                                  
 reshape_12 (Reshape)        (None, 2, 2, 3, 1)           0         ['qcnn1[11][0]']              
                                                                                                  
 reshape_15 (Reshape)        (None, 2, 2, 3, 1)           0         ['qcnn1[12][0]']              
                                                                                                  
 reshape_16 (Reshape)        (None, 2, 2, 3, 1)           0         ['qcnn1[13][0]']              
                                                                                                  
 reshape_17 (Reshape)        (None, 2, 2, 3, 1)           0         ['qcnn1[14][0]']              
                                                                                                  
 reshape_18 (Reshape)        (None, 2, 2, 3, 1)           0         ['qcnn1[15][0]']              
                                                                                                  
 reshape_19 (Reshape)        (None, 2, 2, 3, 1)           0         ['qcnn1[16][0]']              
                                                                                                  
 reshape_20 (Reshape)        (None, 2, 2, 3, 1)           0         ['qcnn1[17][0]']              
                                                                                                  
 reshape_21 (Reshape)        (None, 2, 2, 3, 1)           0         ['qcnn1[18][0]']              
                                                                                                  
 reshape_22 (Reshape)        (None, 2, 2, 3, 1)           0         ['qcnn1[19][0]']              
                                                                                                  
 reshape_23 (Reshape)        (None, 2, 2, 3, 1)           0         ['qcnn1[20][0]']              
                                                                                                  
 reshape_24 (Reshape)        (None, 2, 2, 3, 1)           0         ['qcnn1[21][0]']              
                                                                                                  
 reshape_25 (Reshape)        (None, 2, 2, 3, 1)           0         ['qcnn1[22][0]']              
                                                                                                  
 reshape_26 (Reshape)        (None, 2, 2, 3, 1)           0         ['qcnn1[23][0]']              
                                                                                                  
 reshape_29 (Reshape)        (None, 2, 2, 3, 1)           0         ['qcnn1[24][0]']              
                                                                                                  
 reshape_30 (Reshape)        (None, 2, 2, 3, 1)           0         ['qcnn1[25][0]']              
                                                                                                  
 reshape_31 (Reshape)        (None, 2, 2, 3, 1)           0         ['qcnn1[26][0]']              
                                                                                                  
 reshape_32 (Reshape)        (None, 2, 2, 3, 1)           0         ['qcnn1[27][0]']              
                                                                                                  
 reshape_33 (Reshape)        (None, 2, 2, 3, 1)           0         ['qcnn1[28][0]']              
                                                                                                  
 reshape_34 (Reshape)        (None, 2, 2, 3, 1)           0         ['qcnn1[29][0]']              
                                                                                                  
 reshape_35 (Reshape)        (None, 2, 2, 3, 1)           0         ['qcnn1[30][0]']              
                                                                                                  
 reshape_36 (Reshape)        (None, 2, 2, 3, 1)           0         ['qcnn1[31][0]']              
                                                                                                  
 reshape_37 (Reshape)        (None, 2, 2, 3, 1)           0         ['qcnn1[32][0]']              
                                                                                                  
 reshape_38 (Reshape)        (None, 2, 2, 3, 1)           0         ['qcnn1[33][0]']              
                                                                                                  
 reshape_39 (Reshape)        (None, 2, 2, 3, 1)           0         ['qcnn1[34][0]']              
                                                                                                  
 reshape_40 (Reshape)        (None, 2, 2, 3, 1)           0         ['qcnn1[35][0]']              
                                                                                                  
 tf.concat (TFOpLambda)      (None, 2, 2, 3, 12)          0         ['reshape_1[0][0]',           
                                                                     'reshape_2[0][0]',           
                                                                     'reshape_3[0][0]',           
                                                                     'reshape_4[0][0]',           
                                                                     'reshape_5[0][0]',           
…
                                                                                                  
 tf.split_9 (TFOpLambda)     [(None, 6, 2, 3, 1, 1),      0         ['tf.concat_7[0][0]']         
                              (None, 6, 2, 3, 1, 1),                                              
                              (None, 6, 2, 3, 1, 1),                                              
                              (None, 6, 2, 3, 1, 1)]                                              
                                                                                                  
 tf.concat_2 (TFOpLambda)    (None, 6, 8, 3, 1, 1)        0         ['tf.split_3[0][0]',          
                                                                     'tf.split_3[0][1]',          
                                                                     'tf.split_3[0][2]',          
                                                                     'tf.split_3[0][3]']          
                                                                                                  
 tf.concat_5 (TFOpLambda)    (None, 6, 8, 3, 1, 1)        0         ['tf.split_6[0][0]',          
                                                                     'tf.split_6[0][1]',          
                                                                     'tf.split_6[0][2]',          
                                                                     'tf.split_6[0][3]']          
                                                                                                  
 tf.concat_8 (TFOpLambda)    (None, 6, 8, 3, 1, 1)        0         ['tf.split_9[0][0]',          
                                                                     'tf.split_9[0][1]',          
                                                                     'tf.split_9[0][2]',          
                                                                     'tf.split_9[0][3]']          
                                                                                                  
 tf.compat.v1.squeeze (TFOp  (None, 6, 8, 3)              0         ['tf.concat_2[0][0]']         
 Lambda)                                                                                          
                                                                                                  
 tf.compat.v1.squeeze_1 (TF  (None, 6, 8, 3)              0         ['tf.concat_5[0][0]']         
 OpLambda)                                                                                        
                                                                                                  
 tf.compat.v1.squeeze_2 (TF  (None, 6, 8, 3)              0         ['tf.concat_8[0][0]']         
 OpLambda)                                                                                        
                                                                                                  
 q-resultant (Concatenate)   (None, 6, 8, 9)              0         ['tf.compat.v1.squeeze[0][0]',
                                                                     'tf.compat.v1.squeeze_1[0][0]
                                                                    ',                            
                                                                     'tf.compat.v1.squeeze_2[0][0]
                                                                    ']                            
                                                                                                  
 add (Add)                   (None, 6, 8, 9)              0         ['max_pooling2d_4[0][0]',     
                                                                     'q-resultant[0][0]']         
                                                                                                  
 conv2d_transpose (Conv2DTr  (None, 12, 16, 9)            738       ['add[0][0]']                 
 anspose)                                                                                         
                                                                                                  
 concatenate (Concatenate)   (None, 12, 16, 18)           0         ['conv2d_transpose[0][0]',    
                                                                     'conv2d_9[0][0]']            
                                                                                                  
 conv2d_10 (Conv2D)          (None, 12, 16, 9)            1467      ['concatenate[0][0]']         
                                                                                                  
 conv2d_11 (Conv2D)          (None, 12, 16, 9)            738       ['conv2d_10[0][0]']           
                                                                                                  
 conv2d_transpose_1 (Conv2D  (None, 24, 32, 16)           1312      ['conv2d_11[0][0]']           
 Transpose)                                                                                       
                                                                                                  
 concatenate_1 (Concatenate  (None, 24, 32, 32)           0         ['conv2d_transpose_1[0][0]',  
 )                                                                   'conv2d_7[0][0]']            
                                                                                                  
 conv2d_12 (Conv2D)          (None, 24, 32, 16)           4624      ['concatenate_1[0][0]']       
                                                                                                  
 conv2d_13 (Conv2D)          (None, 24, 32, 16)           2320      ['conv2d_12[0][0]']           
                                                                                                  
 conv2d_transpose_2 (Conv2D  (None, 48, 64, 32)           4640      ['conv2d_13[0][0]']           
 Transpose)                                                                                       
                                                                                                  
 concatenate_2 (Concatenate  (None, 48, 64, 64)           0         ['conv2d_transpose_2[0][0]',  
 )                                                                   'conv2d_5[0][0]']            
                                                                                                  
 conv2d_14 (Conv2D)          (None, 48, 64, 32)           18464     ['concatenate_2[0][0]']       
                                                                                                  
 conv2d_15 (Conv2D)          (None, 48, 64, 32)           9248      ['conv2d_14[0][0]']           
                                                                                                  
 conv2d_transpose_3 (Conv2D  (None, 96, 128, 16)          4624      ['conv2d_15[0][0]']           
 Transpose)                                                                                       
                                                                                                  
 concatenate_3 (Concatenate  (None, 96, 128, 32)          0         ['conv2d_transpose_3[0][0]',  
 )                                                                   'conv2d_3[0][0]']            
                                                                                                  
 conv2d_16 (Conv2D)          (None, 96, 128, 16)          4624      ['concatenate_3[0][0]']       
                                                                                                  
 conv2d_17 (Conv2D)          (None, 96, 128, 16)          2320      ['conv2d_16[0][0]']           
                                                                                                  
 conv2d_transpose_4 (Conv2D  (None, 192, 256, 8)          1160      ['conv2d_17[0][0]']           
 Transpose)                                                                                       
                                                                                                  
 concatenate_4 (Concatenate  (None, 192, 256, 16)         0         ['conv2d_transpose_4[0][0]',  
 )                                                                   'conv2d_1[0][0]']            
                                                                                                  
 conv2d_18 (Conv2D)          (None, 192, 256, 8)          1160      ['concatenate_4[0][0]']       
                                                                                                  
 conv2d_19 (Conv2D)          (None, 192, 256, 8)          584       ['conv2d_18[0][0]']           
                                                                                                  
 conv2d_20 (Conv2D)          (None, 192, 256, 1)          9         ['conv2d_19[0][0]']           
                                                                                                  
==================================================================================================
Total params: 85207 (332.84 KB)
Trainable params: 85207 (332.84 KB)
Non-trainable params: 0 (0.00 Byte)
__________________________________________________________________________________________________
…
